…
Average actions of items: 3.749589640707642
The number of inters: 20559
The sparsity of the dataset: 99.98071694707788%
Wed 28 Jun 2023 09:25:49 INFO 
====Testing====
baby
The number of users: 19445
Average actions of users: 1.1150424273592183
The number of items: 5549
Average actions of items: 3.907370697422959
The number of inters: 21682
The sparsity of the dataset: 99.97990552482683%
Wed 28 Jun 2023 09:25:52 INFO 

=================================


Wed 28 Jun 2023 09:25:52 INFO =========1/1: Parameters:['aggr_mode', 'reg_weight', 'learning_rate', 'seed']=('add', 0.1, 0.0001, 999)=======
Wed 28 Jun 2023 09:25:53 INFO RTG(
  (MLP_v): Linear(in_features=64, out_features=64, bias=False)
  (MLP_t): Linear(in_features=64, out_features=64, bias=False)
  (image_embedding): Embedding(7050, 4096)
  (image_trs): Linear(in_features=4096, out_features=64, bias=True)
  (text_embedding): Embedding(7050, 384)
  (text_trs): Linear(in_features=384, out_features=64, bias=True)
  (MLP_user): Linear(in_features=128, out_features=64, bias=True)
  (v_gcn): GCN(
    (MLP): Linear(in_features=4096, out_features=256, bias=True)
    (MLP_1): Linear(in_features=256, out_features=64, bias=True)
    (conv_embed_1): Base_gcn(64, 64)
  )
  (t_gcn): GCN(
    (MLP): Linear(in_features=384, out_features=256, bias=True)
    (MLP_1): Linear(in_features=256, out_features=64, bias=True)
    (conv_embed_1): Base_gcn(64, 64)
  )
  (concat_gcn): GCN(
    (MLP): Linear(in_features=4480, out_features=256, bias=True)
    (MLP_1): Linear(in_features=256, out_features=64, bias=True)
    (conv_embed_1): Base_gcn(64, 64)
  )
  (user_graph): User_Graph_sample()
)
Trainable parameters: 38017598
Wed 28 Jun 2023 09:26:43 INFO epoch 0 training [time: 48.83s, train loss: 36.6303]
Wed 28 Jun 2023 09:26:50 INFO epoch 0 evaluating [time: 3.64s, valid_score: 0.056000]
Wed 28 Jun 2023 09:26:50 INFO valid result: 
recall@5: 0.0206    recall@10: 0.0339    recall@20: 0.0560    recall@50: 0.1019    ndcg@5: 0.0132    ndcg@10: 0.0175    ndcg@20: 0.0231    ndcg@50: 0.0322    precision@5: 0.0043    precision@10: 0.0036    precision@20: 0.0029    precision@50: 0.0022    map@5: 0.0106    map@10: 0.0124    map@20: 0.0139    map@50: 0.0153    
…
